…
Requirement already satisfied: certifi>=2017.4.17 in /usr/local/lib/python3.11/dist-packages (from requests[socks]->gdown) (2025.1.31)

Requirement already satisfied: PySocks!=1.5.7,>=1.5.6 in /usr/local/lib/python3.11/dist-packages (from requests[socks]->gdown) (1.7.1)

cuda

[1470, 1594]

['NORMAL', 'PNEUMONIA']

Training samples: 2451

Validation samples: 613

{'NORMAL': 0, 'PNEUMONIA': 1}

2451

77

----------------------------------------------------------------

        Layer (type)               Output Shape         Param #

================================================================

            Conv2d-1         [-1, 16, 222, 222]             160

       BatchNorm2d-2         [-1, 16, 222, 222]              32

         MaxPool2d-3         [-1, 16, 111, 111]               0

            Conv2d-4         [-1, 32, 109, 109]           4,640

       BatchNorm2d-5         [-1, 32, 109, 109]              64

         MaxPool2d-6           [-1, 32, 54, 54]               0

            Conv2d-7           [-1, 64, 52, 52]          18,496

       BatchNorm2d-8           [-1, 64, 52, 52]             128

         MaxPool2d-9           [-1, 64, 26, 26]               0

           Conv2d-10          [-1, 128, 24, 24]          73,856

      BatchNorm2d-11          [-1, 128, 24, 24]             256

        MaxPool2d-12          [-1, 128, 12, 12]               0

           Conv2d-13          [-1, 512, 10, 10]         590,336

      BatchNorm2d-14          [-1, 512, 10, 10]           1,024

        MaxPool2d-15            [-1, 512, 5, 5]               0

          Flatten-16                [-1, 12800]               0

           Linear-17                 [-1, 1024]      13,108,224

      BatchNorm1d-18                 [-1, 1024]           2,048

           Linear-19                  [-1, 256]         262,400

      BatchNorm1d-20                  [-1, 256]             512

           Linear-21                  [-1, 128]          32,896

      BatchNorm1d-22                  [-1, 128]             256

           Linear-23                    [-1, 3]             387

          Softmax-24                    [-1, 3]               0

================================================================

Total params: 14,095,715

Trainable params: 14,095,715

Non-trainable params: 0

----------------------------------------------------------------

Input size (MB): 0.19

Forward/backward pass size (MB): 25.28

Params size (MB): 53.77

Estimated Total Size (MB): 79.25

----------------------------------------------------------------
…
